app/src/main/ml/classifier.tflite (tflite, 30120 bytes, 6 tensors)

model/dense_2/MatMul f4 [15, 64]
0	0xbf9aa222	-1.2080729
1	0x3e67aca4	0.22624451
2	0xbffdd204	-1.9829717
3	0x3ee05859	0.43817404
4	0xbfae12ca	-1.3599484
5	0x3e4cd165	0.20001753
6	0xbf03526f	-0.5129766
7	0x3e2a2e2e	0.16619179
8	0x3e87a563	0.26493368
9	0x3dae4503	0.08509257
10	0xbfbdb0c2	-1.4819567
11	0xbfb25c6d	-1.3934456
12	0x3e75d3e4	0.24006611
13	0x3eaacefc	0.33361042
14	0xbfd956b4	-1.6979585
15	0x3e7cc992	0.24686268
16	0x3e009184	0.1255551
17	0xbf33bec9	-0.7021299
18	0xbfec4001	-1.8457032
19	0xbf4bc26a	-0.7959353
20	0x3e3bc7d6	0.1833795
21	0xbf3d8cae	-0.74042785
22	0xbeaac119	-0.33350447
23	0x3e60334a	0.21894565
24	0x3e9b7457	0.30362198
25	0xbfeba0a4	-1.8408399
26	0x3e8d376e	0.27581352
27	0x3eb6b7bd	0.35687056
28	0xbe9a7e96	-0.30174702
29	0xbfcc3812	-1.5954611
30	0x3e70df39	0.23522653
31	0xbff1d099	-1.8891784
32	0x3e8e6d12	0.2781759
33	0x3e0fe317	0.14051472
34	0xbfa227fb	-1.2668451
35	0x3d98e24a	0.07465036
36	0x3ec59779	0.38592127
37	0xc00e8dcb	-2.2274044
38	0xbf7150f6	-0.9426416
39	0x3ec02832	0.37530667
40	0x3e072d14	0.1320079
41	0xbfa7a3ec	-1.30969
42	0xbfb85d05	-1.4403387
43	0xbec77cd7	-0.38962433
44	0x3e6fac86	0.23405656
45	0x3e8e7920	0.27826786
46	0xc002086b	-2.0317638
47	0x3f00f8b6	0.503795
48	0x3eabbce8	0.33542562
49	0xbfddd11d	-1.7329441
50	0xbfbd7ef1	-1.4804364
51	0x3e3e38d6	0.18576369
52	0x3e60c092	0.2194846
53	0xc014b132	-2.3233151
54	0xbf019a4d	-0.5062607
55	0x3ec4ea41	0.38459972
56	0x3e38eeab	0.18059795
57	0x3e739988	0.23789036
58	0x3e1dbddc	0.15404457
59	0xbf13786f	-0.5760564
60	0x3e7f2aa3	0.24918608
61	0xbe9db8ab	-0.30804953
62	0x3e50c716	0.20388445
63	0x3ea808f7	0.3281934
64	0xbeffa7c6	-0.49932688
65	0x3ecb0ce9	0.39658287
66	0x3ef68298	0.4814651
67	0xbf3d013c	-0.7383001
68	0x3e9a0f31	0.30089715
69	0x3e0f0b9d	0.13969274
70	0xbf93aa31	-1.1536313
71	0xbf177498	-0.5916228
72	0x3e86d503	0.2633439
73	0xbf05607c	-0.5210035
74	0x3ef38b03	0.47566995
75	0xbede372b	-0.43401465
76	0x3e30db65	0.17271192
77	0xbf87cacf	-1.0608767
78	0x3e8f7cc7	0.28024885
79	0x3e74cab0	0.23905444
80	0xbf19036c	-0.59770846
81	0xbf4f81ec	-0.8105762
82	0x3ec25679	0.37956598
83	0x3f205db8	0.62643003
84	0x3dab29dc	0.083575934
85	0xbf32a449	-0.6978193
86	0xbf630528	-0.8867974
87	0xbfc4d90f	-1.5378741
88	0xbf4f8980	-0.81069183
89	0x3e606431	0.2191322
90	0xbf15cac3	-0.58512515
91	0xbe71f026	-0.23626766
92	0x3e0b7d9d	0.13622136
93	0x3e605abc	0.21909612
94	0x3e3c6ccd	0.18400879
95	0x3e31d481	0.1736622
96	0xbebddb99	-0.37081602
97	0xbe211ba5	-0.15733202
98	0x3ec8a80d	0.39190713
99	0xbf1428e2	-0.5787488
100	0x3efc43c6	0.49270457
101	0xbf64752e	-0.892413
102	0x3da8caaf	0.08241784
103	0xbf578e6d	-0.842017
104	0xbf8e61cc	-1.1123595
105	0xbd290995	-0.041268904
106	0x3eac1f60	0.33617687
107	0xbf8e0e81	-1.1098176
108	0x3ea0b849	0.31390598
109	0x3e7d7e0a	0.24755111
110	0x3e4e6417	0.20155369
111	0xbf84e30e	-1.0381792
112	0x3ea167f1	0.31524613
113	0x3e1a0bf7	0.15043627
114	0xbf766ad3	-0.9625675
115	0x3e693408	0.22773755
116	0x3ead4181	0.33839038
117	0x3d98d0d6	0.07461707
118	0xbf175834	-0.5911896
119	0x3ecc7351	0.3993173
120	0xbf5fe929	-0.8746515
121	0x3e3aa0a4	0.18225342
122	0xbf724dab	-0.9464976
123	0xbf0bbf59	-0.5458885
124	0x3ec5debf	0.38646504
125	0x3e3b9957	0.18320213
126	0x3e24bba9	0.16087212
127	0xbd6fda63	-0.05855788
128	0x3d8888ea	0.06666739
129	0xbf123018	-0.57104635
130	0xbf1d0796	-0.613397
131	0x3d061906	0.032738708
132	0xbfa23f5e	-1.2675588
133	0xbfbce6f7	-1.4757985
134	0x3ee1c943	0.44098863
135	0x3ef2a831	0.47393945
136	0xbfa93d99	-1.3221923
137	0x3e4ca9b1	0.19986607
138	0xbf9c4d7b	-1.2211145
139	0x3eaf327a	0.34218198
140	0xbf900b56	-1.125346
141	0x3f02ac1b	0.5104386
142	0x3e380dbf	0.17973994
143	0xbf725d6b	-0.94673795
144	0xbf44e3bb	-0.7690999
145	0x3f0c6a19	0.5484939
146	0x3eecee89	0.46275738
147	0xbed95ee8	-0.4245522
148	0xbf93b4c8	-1.1539545
149	0x3e89ab2a	0.268884
150	0x3ea08bc6	0.3135664
151	0xbf459e1e	-0.7719439
152	0xbfa6c367	-1.3028382
153	0xbf73bc76	-0.95209444
154	0xbf86e19a	-1.0537598
155	0xbf2e627f	-0.68119043
156	0x3e93e164	0.28882897
157	0xbf82c503	-1.0216373
158	0xbf3b45b0	-0.7315321
159	0x3ddd0ece	0.107938394
160	0xbf990540	-1.1954727
161	0x3e3e7eb4	0.18603021
162	0xbfb13ef4	-1.3847337
163	0x3dc06fbb	0.09396311
164	0x3ef2e464	0.47439873
165	0xbfa2761c	-1.2692294
166	0xbd672e44	-0.056440607
167	0xbf11eb3c	-0.56999564
168	0x3e87d39d	0.26528636
169	0xbfa8653b	-1.3155893
170	0x3e87f4c5	0.26553932
171	0x3e68f160	0.22748327
172	0xbfdf0c3c	-1.7425609
173	0x3ebc34e0	0.3675909
174	0xbd6cc8c2	-0.057808645
175	0xbfa1a850	-1.262949
176	0xbe8f0f96	-0.2794158
177	0x3e3e8052	0.18603638
178	0x3f34dff8	0.7065425
179	0x3dc97050	0.09835875
180	0xbf82fe6a	-1.0233891
181	0xbf6e84d4	-0.9317143
182	0xbfa1fdcd	-1.2655579
183	0xbfb80f9e	-1.4379766
184	0xbfacccbc	-1.349998
185	0x3eaa0563	0.33207235
186	0x3e674b1b	0.22587244
187	0x3eb7e6e3	0.3591834
188	0xbc369391	-0.011143581
189	0x3e83e512	0.25760704
190	0xbfb6a491	-1.4268972
191	0xbfadfb2f	-1.359228
192	0x3d9c0939	0.076189466
193	0x3ecedbcb	0.40402064
194	0xbf84a716	-1.036349
195	0xbd025932	-0.031823345
196	0x3e833d92	0.25632912
197	0xc00bd510	-2.1848793
198	0x3ef6d7aa	0.48211414
199	0xbf5fa8ef	-0.8736715
200	0xbfbd7ed9	-1.4804336
201	0x3e162427	0.14662229
202	0xbf70f213	-0.94119376
203	0xbce89110	-0.028389484
204	0xbfe946c6	-1.8224723
205	0xbf83a898	-1.0285826
206	0xbfd608cd	-1.6721436
207	0xc015f652	-2.3431592
208	0x3e3072a7	0.17231236
209	0xbf6b4478	-0.9190135
210	0xbf7fe9d3	-0.9996616
211	0xbf779eb3	-0.9672653
212	0xc002a523	-2.0413291
213	0x3e968e72	0.29405552
214	0x3e8265e4	0.2546836
215	0xbf22d37f	-0.6360397
216	0xbff356bc	-1.9010844
217	0x3ea9f4de	0.3319463
218	0x3eb32c2d	0.3499464
219	0xbfc8950b	-1.5670484
220	0x3e497e37	0.19677053
221	0x3e482e7f	0.19548987
222	0x3e62123d	0.2207727
223	0x3e8e9e5d	0.27855197
224	0xbfda7e6b	-1.706983
225	0xc022e347	-2.545122
226	0x3ed8a8b1	0.423162
227	0xbfce0e90	-1.6098194
228	0xbf81afc0	-1.013176
229	0x3ead5c17	0.3385932
230	0x3e8586dd	0.26079455
231	0xbf7d975e	-0.99059093
232	0xbfd6b884	-1.677506
233	0x3e29272f	0.16518854
234	0xbf67aaba	-0.90494883
235	0xbf9acfc8	-1.209466
236	0xbfed7262	-1.8550532
237	0xbf85c48c	-1.0450606
238	0x3e886df0	0.26646376
239	0x3f00efd4	0.5036595
240	0x3ed7e0af	0.42163607
241	0x3e4d5597	0.20052181
242	0xbf1b1149	-0.6057325
243	0xc005c72a	-2.090281
244	0xbfce4a78	-1.6116476
245	0x3e39c91a	0.1814312
246	0x3e2b3d99	0.16722716
247	0xbefa5ceb	-0.48899016
248	0xbf93d87d	-1.1550442
249	0xbfcffda8	-1.6249285
250	0x3eaaca37	0.33357403
251	0x3e65fc6e	0.22459576
252	0xbfb59f9a	-1.4189332
253	0xc002882d	-2.0395615
254	0x3cfae4b0	0.030626625
255	0xbfeabbee	-1.8338602

model/dense/BiasAdd/ReadVariableOp f4 [128]
0	0xbd576799	-0.052589033
1	0xbd49d4cf	-0.049275216
2	0xbd1742f6	-0.036929093
3	0xbd525b50	-0.051356614
4	0xbe40d0e2	-0.18829682
5	0xbd908cfd	-0.070581414
6	0x3c481136	0.012211135
7	0xbdc98235	-0.09839288
8	0xbc9c57ba	-0.0190848
9	0xbd750a5c	-0.059824333
10	0xbeb4455d	-0.3520917
11	0xbda9953e	-0.08280419
12	0xbdb56433	-0.08857002
13	0xbd937718	-0.0720045
14	0xbce5b8c9	-0.028042214
15	0xbcda69a4	-0.026661702
16	0xbbf68bff	-0.007524013
17	0xbd9f8e61	-0.077908285
18	0xbc64c781	-0.013963581
19	0x3b7e503e	0.0038805152
20	0xbc88e7a7	-0.016712023
21	0xbd4e3ea1	-0.050352696
22	0xbd3f9fa5	-0.04678311
23	0xbdfd2f02	-0.12362482
24	0xbe004c55	-0.12529118
25	0xbd5f72b2	-0.05455274
26	0xbe0eeb8f	-0.13957046
27	0xbdf3c1b0	-0.11902177
28	0xbd900df5	-0.07033912
29	0xbd5e478a	-0.054267444
30	0xbe1537e4	-0.14572102
31	0xbc924220	-0.017853796
32	0xbd79398c	-0.060845897
33	0xba29fd7a	-0.00064846093
34	0xbdf0720a	-0.11740501
35	0xbd374430	-0.044742763
36	0xbddcf1b4	-0.10788289
37	0xbd4ed47a	-0.050495602
38	0xbd6bf18d	-0.057603408
39	0x3d7fe832	0.062477298
40	0xbcc74f1e	-0.024329718
41	0xbc640209	-0.013916501
42	0xbd02c4ed	-0.031926084
43	0xbd15d2ac	-0.036577865
44	0x3d2e774e	0.042594247
45	0xbcb73813	-0.022365605
46	0xbd93576a	-0.07194407
47	0xbdf110dc	-0.11770794
48	0xbd741d97	-0.05959853
49	0x3d71bfbe	0.05902075
50	0x3ba5cacb	0.005059575
51	0xbdf87179	-0.12131018
52	0xbdbcf036	-0.09225504
53	0xbdea4776	-0.11439411
54	0xbdad6ea2	-0.08468367
55	0xbdb271ff	-0.08713149
56	0xbe7a46ba	-0.24441043
57	0xbe2bc35a	-0.1677374
58	0xbd0c2eee	-0.034224443
59	0xbddcfacf	-0.107900254
60	0xbdb0a4e7	-0.086252026
61	0xbc491daa	-0.012275139
62	0xbe19f227	-0.1503378
63	0x3d0ce422	0.034397252
64	0xbdf89ced	-0.12139306
65	0xbd8f72cd	-0.070043184
66	0xbcc9b6ff	-0.024623392
67	0xbe37b34b	-0.17939489
68	0x3d820dc3	0.06350281
69	0xbe54e04f	-0.20788692
70	0xbdb0059d	-0.08594821
71	0x3b875ca8	0.0041309185
72	0xbd2790a8	-0.04090944
73	0x3ccc541d	0.024942452
74	0x3b5b5b9f	0.0033471358
75	0xbc6af489	-0.014340528
76	0xbcd941a4	-0.026520558
77	0xbe039831	-0.12851025
78	0x3b9f9ba9	0.004870851
79	0xbcb886e2	-0.022525255
80	0xbd69809e	-0.057007425
81	0xbd907a36	-0.0705456
82	0xbd3867ab	-0.04502074
83	0xbde8e18a	-0.11371143
84	0xbe39e62b	-0.18154208
85	0xbe03559b	-0.12825625
86	0xbcebe421	-0.028795304
87	0xbe12619a	-0.14295045
88	0xbe22d087	-0.1589986
89	0xbde6f530	-0.112772346
90	0xbc4cf4de	-0.012509553
91	0xbd73fb09	-0.059565578
92	0xbe116670	-0.14199233
93	0xbdf9377c	-0.12168786
94	0xbcf980b2	-0.030456875
95	0xbdb95c31	-0.09050787
96	0xbdf27c52	-0.118401185
97	0xbe9c197f	-0.30488202
98	0xbd061b9a	-0.032741167
99	0xbd640bc9	-0.0556753
100	0xbd2f16ef	-0.04274648
101	0xbd13b69b	-0.036062818
102	0xbe8c9738	-0.2745912
103	0xbc93a820	-0.018024504
104	0xbd1b4818	-0.03791055
105	0xbdc1242f	-0.094307296
106	0xbd87461d	-0.0660517
107	0xba594f48	-0.0008289707
108	0xbe143487	-0.14473163
109	0xbc9ee7ee	-0.019397702
110	0xbcea7ec4	-0.0286249
111	0xbad7a41c	-0.0016452107
112	0x3c137566	0.009000158
113	0xbe0e37e1	-0.13888504
114	0xbe1f2657	-0.15541969
115	0xbca12844	-0.01967252
116	0xbdcc15ac	-0.09965071
117	0xbd8766f0	-0.06611431
118	0xbe0944bf	-0.13405131
119	0xbaa4b341	-0.0012565629
120	0xbc314bb6	-0.010821274
121	0x3d3ce2fa	0.0461149
122	0x3c52e5b2	0.012872146
123	0xbe0fa9be	-0.14029595
124	0xbc2402df	-0.01001045
125	0xbdb66748	-0.08906418
126	0xbdfaa30f	-0.12238132
127	0x3cd41d18	0.02589278

model/dense_2/BiasAdd/ReadVariableOp f4 [15]
0	0xbe9613ce	-0.29311985
1	0xbf5e86f0	-0.8692465
2	0xbfa1ae35	-1.2631289
3	0x3eae9e6a	0.34105235
4	0x3f131da2	0.5746709
5	0x3cc83cee	0.024443116
6	0x3eeb2f03	0.45934305
7	0x3f002486	0.5005573
8	0xbe21b292	-0.15790775
9	0x3e90f307	0.28310415
10	0xbe51a4db	-0.20473044
11	0x3efcb09e	0.49353498
12	0x3e9b2525	0.30301777
13	0xbdf56990	-0.11983025
14	0xbf8cf68a	-1.1012738

model/dense_1/BiasAdd/ReadVariableOp f4 [64]
0	0x3ef7e43b	0.48416314
1	0x3e778e95	0.24175484
2	0xbe491c38	-0.19639671
3	0x3e99c898	0.30035853
4	0x3e41de49	0.18932451
5	0x3e7cb69f	0.2467904
6	0x3e4850cd	0.19562073
7	0xbd9f76f6	-0.07786362
8	0x3dab2982	0.08357526
9	0x3e5e68c9	0.2171966
10	0xbdf30073	-0.1186532
11	0xbd7d7fda	-0.061889507
12	0xbd0a6c56	-0.033794723
13	0xbe038818	-0.12844884
14	0xbcb4ae32	-0.022055719
15	0x3aa7dae4	0.0012806323
16	0x3ddd2f7c	0.108000726
17	0xbe7b84c4	-0.24562365
18	0xbea3bd6e	-0.3198046
19	0xbecb7943	-0.39740953
20	0x3e2619c6	0.1622077
21	0x3e7b6709	0.24551024
22	0x3d18f361	0.03734148
23	0x3e523669	0.20528568
24	0x3e0d3d91	0.13793017
25	0x3ea6422d	0.32472363
26	0x3eb69f3c	0.3566836
27	0x3e5bea1d	0.21476026
28	0xbd5749a6	-0.05256047
29	0x3e09e2bf	0.13465403
30	0x3e2af954	0.16696674
31	0xbcd787af	-0.026309816
32	0x3de674d3	0.11252751
33	0xbd476a98	-0.04868564
34	0x3e24ea6f	0.16105054
35	0x3e202b89	0.15641607
36	0xbe2bb26d	-0.16767283
37	0x3f2891c6	0.6584743
38	0x3e86f6d0	0.26360178
39	0x3cf9bd2b	0.03048571
40	0x3da96b96	0.082724735
41	0x3ee9ac1c	0.45639122
42	0xbe382544	-0.17982966
43	0x3e3425ce	0.17592546
44	0x3dba713f	0.09103631
45	0xbe197662	-0.14986566
46	0x3d5ac360	0.05340898
47	0x3e7f6d5b	0.2494406
48	0x3cd3c303	0.025849825
49	0xbd6f86c6	-0.05847814
50	0x3d95648c	0.072945684
51	0xbe7f956f	-0.24959348
52	0xbbb08962	-0.005387471
53	0x3edac4eb	0.4272836
54	0x3f17a4f6	0.59236085
55	0xbd7bb47e	-0.061451428
56	0x3ee27cff	0.4423599
57	0xbda45b0d	-0.08025179
58	0x3ed30f30	0.41222525
59	0x3e0bd74e	0.13656351
60	0xbe4c5fa5	-0.1995836
61	0xbba44410	-0.0050129965
62	0x3cb87145	0.022514949
63	0x3dc1549f	0.09439968

model/dense/MatMul i1 [128, 34] scale=0.012850003 zero_point=0
0	0xf7	-0.11565003
1	0x04	0.051400013
2	0xf5	-0.14135003
3	0x0f	0.19275005
4	0x0d	0.16705005
5	0x08	0.10280003
6	0x1a	0.3341001
7	0x05	0.064250015
8	0x17	0.29555008
9	0x21	0.42405012
10	0x1f	0.3983501
11	0xf5	-0.14135003
12	0x20	0.4112001
13	0x03	0.03855001
14	0x35	0.6810502
15	0xd1	-0.60395014
16	0x55	1.0922502
17	0xf9	-0.089950025
18	0x1f	0.3983501
19	0xfa	-0.07710002
20	0x23	0.44975013
21	0x26	0.4883001
22	0xf2	-0.17990005
23	0xfa	-0.07710002
24	0x23	0.44975013
25	0x0f	0.19275005
26	0xee	-0.23130006
27	0xfb	-0.064250015
28	0xdc	-0.4626001
29	0x20	0.4112001
30	0xfe	-0.025700007
31	0x10	0.20560005
32	0xfe	-0.025700007
33	0x15	0.26985008
34	0x0f	0.19275005
35	0xe0	-0.4112001
36	0x03	0.03855001
37	0xe5	-0.34695008
38	0x03	0.03855001
39	0xfe	-0.025700007
40	0xf4	-0.15420005
41	0x0a	0.12850003
42	0xfb	-0.064250015
43	0xf8	-0.10280003
44	0xff	-0.012850003
45	0x20	0.4112001
46	0xf4	-0.15420005
47	0xec	-0.25700006
48	0xf4	-0.15420005
49	0x00	0.0
50	0xf4	-0.15420005
51	0xe8	-0.3084001
52	0x10	0.20560005
53	0x15	0.26985008
54	0xf0	-0.20560005
55	0xb3	-0.9894503
56	0xe6	-0.3341001
57	0x1a	0.3341001
58	0x1a	0.3341001
59	0xe0	-0.4112001
60	0xd7	-0.52685016
61	0xdd	-0.44975013
62	0x19	0.32125008
63	0xf1	-0.19275005
64	0xd5	-0.55255014
65	0xd3	-0.57825017
66	0x01	0.012850003
67	0xcc	-0.6682002
68	0x04	0.051400013
69	0xfa	-0.07710002
70	0x03	0.03855001
71	0x03	0.03855001
72	0x0e	0.17990005
73	0x06	0.07710002
74	0x04	0.051400013
75	0x06	0.07710002
76	0xfa	-0.07710002
77	0x17	0.29555008
78	0xd8	-0.5140001
79	0x1f	0.3983501
80	0xff	-0.012850003
81	0x0a	0.12850003
82	0xe3	-0.3726501
83	0x1a	0.3341001
84	0xf5	-0.14135003
85	0xbe	-0.84810024
86	0x0f	0.19275005
87	0xfe	-0.025700007
88	0x12	0.23130006
89	0xb7	-0.93805027
90	0xb0	-1.0280002
91	0x0d	0.16705005
92	0x56	1.1051003
93	0xe6	-0.3341001
94	0xe8	-0.3084001
95	0x2f	0.60395014
96	0x05	0.064250015
97	0x4c	0.9766002
98	0x01	0.012850003
99	0xdc	-0.4626001
100	0x08	0.10280003
101	0xf2	-0.17990005
102	0x21	0.42405012
103	0xd8	-0.5140001
104	0x12	0.23130006
105	0xef	-0.21845005
106	0x1c	0.3598001
107	0xf8	-0.10280003
108	0x10	0.20560005
109	0x06	0.07710002
110	0x12	0.23130006
111	0xf7	-0.11565003
112	0xdc	-0.4626001
113	0x13	0.24415006
114	0xf8	-0.10280003
115	0xf6	-0.12850003
116	0xf9	-0.089950025
117	0x2a	0.53970015
118	0x04	0.051400013
119	0xe1	-0.3983501
120	0x0b	0.14135003
121	0xf7	-0.11565003
122	0x05	0.064250015
123	0xd4	-0.5654001
124	0x82	-1.6191005
125	0x05	0.064250015
126	0x69	1.3492503
127	0xe0	-0.4112001
128	0x00	0.0
129	0xef	-0.21845005
130	0x36	0.69390017
131	0x03	0.03855001
132	0x1c	0.3598001
133	0xe5	-0.34695008
134	0x20	0.4112001
135	0xe1	-0.3983501
136	0x0c	0.15420005
137	0xe9	-0.29555008
138	0x02	0.025700007
139	0xf5	-0.14135003
140	0xf3	-0.16705005
141	0xde	-0.4369001
142	0xea	-0.28270006
143	0x00	0.0
144	0xff	-0.012850003
145	0xf8	-0.10280003
146	0xe8	-0.3084001
147	0x09	0.11565003
148	0xeb	-0.26985008
149	0x18	0.3084001
150	0xd8	-0.5140001
151	0xf8	-0.10280003
152	0xdc	-0.4626001
153	0x05	0.064250015
154	0xd0	-0.6168002
155	0xd1	-0.60395014
156	0xcc	-0.6682002
157	0xf6	-0.12850003
158	0xf5	-0.14135003
159	0xfc	-0.051400013
160	0x04	0.051400013
161	0x04	0.051400013
162	0xf8	-0.10280003
163	0xf0	-0.20560005
164	0x28	0.5140001
165	0xed	-0.24415006
166	0xff	-0.012850003
167	0x11	0.21845005
168	0x0b	0.14135003
169	0xf3	-0.16705005
170	0x1c	0.3598001
171	0x04	0.051400013
172	0xff	-0.012850003
173	0xf2	-0.17990005
174	0x19	0.32125008
175	0xf8	-0.10280003
176	0xfd	-0.03855001
177	0x11	0.21845005
178	0xff	-0.012850003
179	0xf2	-0.17990005
180	0xfc	-0.051400013
181	0xf9	-0.089950025
182	0x0a	0.12850003
183	0x06	0.07710002
184	0xea	-0.28270006
185	0x38	0.7196002
186	0xe1	-0.3983501
187	0xe0	-0.4112001
188	0xf7	-0.11565003
189	0xfb	-0.064250015
190	0xbe	-0.84810024
191	0x0e	0.17990005
192	0xe4	-0.3598001
193	0x2e	0.59110016
194	0x21	0.42405012
195	0xea	-0.28270006
196	0x3a	0.7453002
197	0x1d	0.3726501
198	0x17	0.29555008
199	0x02	0.025700007
200	0x27	0.50115013
201	0x16	0.28270006
202	0x0a	0.12850003
203	0xe9	-0.29555008
204	0xef	-0.21845005
205	0x29	0.52685016
206	0xf0	-0.20560005
207	0x22	0.4369001
208	0xef	-0.21845005
209	0x1a	0.3341001
210	0xf7	-0.11565003
211	0xfe	-0.025700007
212	0xed	-0.24415006
213	0xfa	-0.07710002
214	0x07	0.089950025
215	0xe2	-0.3855001
216	0xf9	-0.089950025
217	0xc5	-0.7581502
218	0x11	0.21845005
219	0xe0	-0.4112001
220	0xfd	-0.03855001
221	0x02	0.025700007
222	0x1d	0.3726501
223	0x1c	0.3598001
224	0x0c	0.15420005
225	0x3e	0.7967002
226	0x3d	0.7838502
227	0x23	0.44975013
228	0xd4	-0.5654001
229	0xdb	-0.47545013
230	0x02	0.025700007
231	0x10	0.20560005
232	0xed	-0.24415006
233	0x01	0.012850003
234	0xf1	-0.19275005
235	0xdd	-0.44975013
236	0xfe	-0.025700007
237	0x06	0.07710002
238	0x0b	0.14135003
239	0xfb	-0.064250015
240	0xf9	-0.089950025
241	0x0e	0.17990005
242	0x13	0.24415006
243	0x11	0.21845005
244	0x0a	0.12850003
245	0x10	0.20560005
246	0x07	0.089950025
247	0x0b	0.14135003
248	0xf5	-0.14135003
249	0x18	0.3084001
250	0xe9	-0.29555008
251	0xfa	-0.07710002
252	0xf7	-0.11565003
253	0x18	0.3084001
254	0xf3	-0.16705005
255	0xa6	-1.1565003

model/dense_1/MatMul i1 [64, 128] scale=0.014623671 zero_point=0
0	0x06	0.08774202
1	0xde	-0.4972048
2	0xe0	-0.46795747
3	0xf2	-0.20473139
4	0xff	-0.014623671
5	0xf4	-0.17548405
6	0xf5	-0.16086037
7	0xef	-0.2486024
8	0xef	-0.2486024
9	0x08	0.11698937
10	0x26	0.55569947
11	0xfc	-0.058494683
12	0x0d	0.19010772
13	0xf2	-0.20473139
14	0xf8	-0.11698937
15	0x0b	0.16086037
16	0xe2	-0.43871012
17	0x3e	0.9066676
18	0x07	0.102365695
19	0xf5	-0.16086037
20	0xf8	-0.11698937
21	0xfc	-0.058494683
22	0x01	0.014623671
23	0xf9	-0.102365695
24	0xff	-0.014623671
25	0xf9	-0.102365695
26	0xf2	-0.20473139
27	0x27	0.57032317
28	0xfd	-0.04387101
29	0xe4	-0.40946278
30	0xe5	-0.3948391
31	0x07	0.102365695
32	0x11	0.2486024
33	0x0d	0.19010772
34	0x20	0.46795747
35	0xff	-0.014623671
36	0xf0	-0.23397873
37	0xfd	-0.04387101
38	0x25	0.5410758
39	0xfa	-0.08774202
40	0xe8	-0.3509681
41	0xf2	-0.20473139
42	0xf3	-0.19010772
43	0xfd	-0.04387101
44	0xf1	-0.21935506
45	0x08	0.11698937
46	0xfb	-0.07311835
47	0xf2	-0.20473139
48	0xfc	-0.058494683
49	0xfd	-0.04387101
50	0xe9	-0.33634442
51	0xcc	-0.7604309
52	0xf8	-0.11698937
53	0xf1	-0.21935506
54	0x15	0.30709708
55	0x05	0.07311835
56	0x14	0.2924734
57	0x0b	0.16086037
58	0x0e	0.20473139
59	0xf5	-0.16086037
60	0x01	0.014623671
61	0x18	0.3509681
62	0xed	-0.27784973
63	0xfe	-0.029247342
64	0xf9	-0.102365695
65	0x34	0.7604309
66	0x01	0.014623671
67	0x00	0.0
68	0xf9	-0.102365695
69	0xf2	-0.20473139
70	0xec	-0.2924734
71	0x0d	0.19010772
72	0x12	0.26322606
73	0x02	0.029247342
74	0xf7	-0.13161303
75	0x04	0.058494683
76	0x2a	0.61419415
77	0xe6	-0.38021544
78	0x05	0.07311835
79	0xe7	-0.36559176
80	0xee	-0.26322606
81	0xeb	-0.30709708
82	0xe6	-0.38021544
83	0xf1	-0.21935506
84	0xf1	-0.21935506
85	0xfa	-0.08774202
86	0x1e	0.43871012
87	0xf6	-0.1462367
88	0xe8	-0.3509681
89	0xfb	-0.07311835
90	0x04	0.058494683
91	0x20	0.46795747
92	0x0e	0.20473139
93	0x1d	0.42408645
94	0x08	0.11698937
95	0x0b	0.16086037
96	0xfd	-0.04387101
97	0xee	-0.26322606
98	0xe1	-0.4533338
99	0x03	0.04387101
100	0xe2	-0.43871012
101	0x04	0.058494683
102	0xe6	-0.38021544
103	0x03	0.04387101
104	0xfe	-0.029247342
105	0xfc	-0.058494683
106	0xfc	-0.058494683
107	0x04	0.058494683
108	0x09	0.13161303
109	0xec	-0.2924734
110	0x05	0.07311835
111	0x0f	0.21935506
112	0x0d	0.19010772
113	0xf0	-0.23397873
114	0xe7	-0.36559176
115	0x1f	0.4533338
116	0xfc	-0.058494683
117	0x17	0.33634442
118	0xf9	-0.102365695
119	0x22	0.4972048
120	0x04	0.058494683
121	0x08	0.11698937
122	0x3e	0.9066676
123	0xd4	-0.6434415
124	0x20	0.46795747
125	0xef	-0.2486024
126	0xfc	-0.058494683
127	0xfc	-0.058494683
128	0xce	-0.7311835
129	0x04	0.058494683
130	0x16	0.32172075
131	0xf6	-0.1462367
132	0xee	-0.26322606
133	0xf4	-0.17548405
134	0x14	0.2924734
135	0x06	0.08774202
136	0xed	-0.27784973
137	0xc6	-0.8481729
138	0xf2	-0.20473139
139	0xee	-0.26322606
140	0xe6	-0.38021544
141	0x05	0.07311835
142	0xe6	-0.38021544
143	0x03	0.04387101
144	0x01	0.014623671
145	0xeb	-0.30709708
146	0xe3	-0.42408645
147	0xf2	-0.20473139
148	0x07	0.102365695
149	0xdd	-0.5118285
150	0xdc	-0.5264521
151	0x15	0.30709708
152	0x0a	0.1462367
153	0x07	0.102365695
154	0x11	0.2486024
155	0xce	-0.7311835
156	0x13	0.27784973
157	0x22	0.4972048
158	0x04	0.058494683
159	0x0b	0.16086037
160	0xfc	-0.058494683
161	0x0d	0.19010772
162	0x05	0.07311835
163	0xe3	-0.42408645
164	0xdd	-0.5118285
165	0xeb	-0.30709708
166	0x00	0.0
167	0xff	-0.014623671
168	0x07	0.102365695
169	0x0e	0.20473139
170	0xf3	-0.19010772
171	0xec	-0.2924734
172	0xff	-0.014623671
173	0xc2	-0.9066676
174	0x09	0.13161303
175	0xf4	-0.17548405
176	0x02	0.029247342
177	0xf7	-0.13161303
178	0x04	0.058494683
179	0x21	0.48258114
180	0xdf	-0.48258114
181	0x19	0.36559176
182	0x06	0.08774202
183	0x03	0.04387101
184	0xd9	-0.57032317
185	0x21	0.48258114
186	0xed	-0.27784973
187	0x00	0.0
188	0xfc	-0.058494683
189	0x2d	0.6580652
190	0xfa	-0.08774202
191	0x0d	0.19010772
192	0xe6	-0.38021544
193	0xbd	-0.9797859
194	0xe6	-0.38021544
195	0xe9	-0.33634442
196	0xf6	-0.1462367
197	0xfa	-0.08774202
198	0x00	0.0
199	0xd8	-0.5849468
200	0x05	0.07311835
201	0x0b	0.16086037
202	0xfe	-0.029247342
203	0xfe	-0.029247342
204	0x0c	0.17548405
205	0x01	0.014623671
206	0x0d	0.19010772
207	0xf8	-0.11698937
208	0x05	0.07311835
209	0xf9	-0.102365695
210	0x05	0.07311835
211	0x06	0.08774202
212	0xfe	-0.029247342
213	0x0e	0.20473139
214	0xe2	-0.43871012
215	0xfd	-0.04387101
216	0x19	0.36559176
217	0xee	-0.26322606
218	0x02	0.029247342
219	0xe3	-0.42408645
220	0xd7	-0.5995705
221	0x08	0.11698937
222	0xf4	-0.17548405
223	0xe4	-0.40946278
224	0xf9	-0.102365695
225	0x26	0.55569947
226	0x08	0.11698937
227	0x1c	0.40946278
228	0x28	0.5849468
229	0x13	0.27784973
230	0x03	0.04387101
231	0x05	0.07311835
232	0xf2	-0.20473139
233	0xd2	-0.67268884
234	0xf4	-0.17548405
235	0x43	0.9797859
236	0x09	0.13161303
237	0xfd	-0.04387101
238	0x22	0.4972048
239	0xf7	-0.13161303
240	0xec	-0.2924734
241	0x0a	0.1462367
242	0x0d	0.19010772
243	0xe1	-0.4533338
244	0x0b	0.16086037
245	0x0a	0.1462367
246	0x00	0.0
247	0xdf	-0.48258114
248	0x0f	0.21935506
249	0xed	-0.27784973
250	0x0f	0.21935506
251	0x1f	0.4533338
252	0x05	0.07311835
253	0x18	0.3509681
254	0xfa	-0.08774202
255	0x18	0.3509681
